ANN/model/weights_best.pth (torch, 874007 bytes, 6 tensors)

fc.1.block.linear.weight f4 [256, 784]
0.021997873 -0.06262548 -0.17711313 -0.21503788 0.028006522 -0.053738136 -0.12925708 -0.27601576
-0.1454477 -0.04766831 0.004286414 0.007855748 0.035431966 0.22700384 0.17859545 0.11196341
0.015233206 -0.016075715 -0.09857472 -0.16594855 -0.2935042 -0.22468558 0.00044002384 0.16393465
-0.039129395 -0.17235337 -0.09386659 0.007871962 -0.02976816 -0.09470115 -0.11415642 -0.25346705
-0.12531076 -0.14096138 -0.06982529 0.040508248 -0.013591028 0.02388065 0.090619065 0.105527274
0.05208445 0.068550944 0.14590098 0.16181399 0.09101543 0.105349615 -0.015212274 -0.17320058
-0.10825451 -0.113102525 -0.17422092 -0.13602844 -0.25019845 -0.15427351 -0.029443648 -0.012803877
-0.25891435 -0.0724021 -0.04586008 -0.26575723 -0.10624445 -0.027838403 0.031519193 -0.036639135
-0.062339056 0.06033713 0.05205707 -0.0143723115 0.023299748 -0.018151883 0.0084401565 0.050711274
-0.027041018 -0.09997283 0.009124066 0.054872304 -0.030668845 -0.059875164 -0.099449374 -0.18432328
-0.3686208 -0.1300321 -0.063696146 -0.049213495 -0.21335152 -0.088290736 -0.1706493 -0.2668668
0.025765117 0.05482152 -0.023283992 -0.014199068 -0.0145189045 0.016286554 0.023451209 -0.011773013
-0.03049339 0.025304608 0.03920885 0.035876393 0.026880488 -0.028822979 -0.053268354 -0.07036075
0.0068031703 0.067785464 0.047694273 -0.12276842 -0.27921918 -0.12156229 -0.048680678 -0.04024867
-0.14718798 -0.097160466 -0.31296086 -0.18561341 0.12465846 0.055231906 -0.017113425 0.029531397
0.0022514006 -0.011875363 0.019539088 -0.01742062 -0.05152971 0.032779183 0.09903144 0.046545066
0.08546698 -0.07480124 -0.0760297 0.019903684 -0.030021142 0.039053246 0.042676583 -0.018349687
-0.21041702 -0.1786205 0.0355457 -0.046346866 -0.071688294 -0.043999832 -0.19965537 0.10284976
0.04513529 -0.016941756 -0.035380363 0.02754234 -0.024140839 0.01906388 0.0037510628 -0.01949996
-0.062174637 -0.0006631195 0.030965783 0.034534343 0.018422475 -0.07620304 -0.020598471 -0.0127391
0.007513885 0.029473634 0.06454387 -0.085550755 -0.08760038 -0.08249801 -0.05352398 -0.034889
-0.01898354 -0.07829807 -0.063077666 0.11989334 0.05719461 -0.03296597 0.008708565 0.073172525
-0.024674604 0.0118962675 -0.045157682 0.019011155 0.0032955778 0.009106821 0.11892633 0.0124038635
-0.03609844 -0.0029999462 -0.069282554 -0.08474066 0.033649363 -0.0020646139 0.003773313 -0.029216068
-0.09186787 -0.19214429 -0.07767196 -0.010940644 -0.06432554 -0.12491222 -0.25158235 -0.006099835
-0.008074758 0.05595046 0.035796694 0.019364987 -0.031858154 -0.010802929 -0.022163287 0.0021754594
-0.029450463 -0.072299264 0.09926596 0.042146925 -0.07364729 -0.047196943 -0.04069228 -0.1004289
-0.034448408 0.041458488 0.033464376 -0.0030290599 -0.120154545 -0.15391918 -0.07310597 -0.08479614
-0.12390275 -0.20374238 -0.18081717 -0.15462409 -0.00040922774 0.0012112168 -0.026499923 0.026298737
-0.032737926 0.047128428 0.016117739 0.014081477 -0.025937425 -0.0153789455 0.039532624 0.024318263
-0.097287774 -0.025440997 -0.014751266 -0.06692742 -0.027729824 -0.00089512655 -0.046063077 0.0032936144
-0.19768962 -0.16318165 -0.14683312 -0.15410031 -0.17419942 -0.064056434 -0.18606137 -0.092117466
00000000: e234 b43c ca41 80bd 255d 35be e432 5cbe
00000010: ef6d e53c 851c 5cbd f85b 04be f051 8dbe
00000020: 3ef0 14be d93f 43bd 0c75 8c3b 65b5 003c
00000030: 1c21 113d b273 683e bae1 363e 134d e53d
00000040: b294 793c 38b1 83bc 8be1 c9bd 6bee 29be
00000050: 2f46 96be fa13 66be 00b3 e639 7cde 273e
00000060: 2546 20bd 677d 30be 203d c0bd 67f9 003c
00000070: 5bdc f3bc adf2 c1bd d7ca e9bd 6fc6 81be
00000080: 7751 00be 2e58 10be 9000 8fbd faeb 253d
00000090: e7ac 5ebc 5aa1 c33c 7d96 b93d af1e d83d
000000a0: 8156 553d 7064 8c3d 1167 153e 91b2 253e
000000b0: 4c66 ba3d 8ac1 d73d e73c 79bc 7e5b 31be
000000c0: 8ab4 ddbd 4ca2 e7bd f866 32be 0a4b 0bbe
000000d0: 031a 80be e0f9 1dbe ce33 f1bc 5ac7 51bc
000000e0: 6c90 84be 8d47 94bd c7d7 3bbd 5511 88be
000000f0: b196 d9bd 5d0d e4bc 451a 013d eb12 16bd
00000100: 3d57 7fbd 1124 773d cb39 553d d879 6bbc
00000110: 1ddf be3c 42b3 94bc 9548 0a3c a0b6 4f3d
00000120: 2085 ddbc 8ebe ccbd 1b7d 153c c8c1 603d
00000130: 3b3d fbbc a93f 75bd 1dac cbbd 3ebf 3cbe
00000140: debb bcbe 2327 05be 2073 82bd 1794 49bd
00000150: d278 5abe c6d1 b4bd b1be 2ebe c4a2 88be
00000160: 5e11 d33c 888c 603d 12be bebc 35a3 68bc
00000170: b3e0 6dbc 616b 853c c01c c03c 98e3 40bc
00000180: 46cd f9bc 9c4b cf3c 7699 203d 20f3 123d
00000190: 7834 dc3c 2b1e ecbc eb2f 5abd 4c19 90bd
000001a0: 21ed de3b 1bd3 8a3d 125b 433d 026e fbbd
000001b0: d1f5 8ebe a6f5 f8bd 6465 47bd cadb 24bd
000001c0: 72b8 16be 11fc c6bd 683c a0be 7111 3ebe
000001d0: ef4c ff3d da3a 623d 7431 8cbc d4eb f13c
000001e0: 3c8c 133b e290 42bc 7010 a03c b0b5 8ebc
000001f0: d110 53bd 7743 063d ffd0 ca3d 0aa6 3e3d
00000200: 5009 af3d 6431 99bd 76b5 9bbd 0d0d a33c
00000210: e6ee f5bc 4cf6 1f3d a4cd 2e3d 1552 96bc
00000220: 8f77 57be 4be8 36be 5e98 113d 36d6 3dbd
00000230: 50d1 92bd 2b39 34bd 7572 4cbe e5a2 d23d
00000240: c8df 383d 70c9 8abc 00eb 10bd 79a0 e13c
00000250: 02c3 c5bc db2b 9c3c 64d4 753b 61be 9fbc
00000260: d5aa 7ebd 32d5 2dba f4ab fd3c e273 0d3d
00000270: bbea 963c 5710 9cbd 20be a8bc a8b7 50bc
00000280: 0937 f63b b172 f13c 942f 843d 3c35 afbd
00000290: d467 b3bd b7f4 a8bd f63b 5bbd c5e7 0ebd
000002a0: 5e83 9bbc bd5a a0bd dd2e 81bd a48a f53d
000002b0: e544 6a3d 5307 07bd 5eae 0e3c 7adb 953d
000002c0: 6522 cabc 90e8 423c 43f7 38bd 48bd 9b3c
000002d0: 9ffa 573b c734 153c a68f f33d 9339 4b3c
000002e0: f5db 13bd bf9a 44bb 03e4 8dbd 838c adbd
000002f0: ead3 093d 794e 07bb b049 773b 8956 efbc
00000300: 3925 bcbd 79c1 44be 7a12 9fbd 6340 33bc
00000310: 1cbd 83bd fad1 ffbd 67cf 80be 20e1 c7bb
00000320: fd4b 04bc 4f2c 653d 8e9f 123d 52a3 9e3c
00000330: b27d 02bd c5fe 30bc c88f b5bc 2792 0e3b
00000340: 1942 f1bc a311 94bd f44b cb3d 41a2 2c3d
00000350: 64d4 96bd 9551 41bd f3ac 26bd abad cdbd
00000360: c619 0dbd 60d0 293d f111 093d 3183 46bb
00000370: 9613 f6bd fd9c 1dbe 95b8 95bd 99a9 adbd
00000380: bac0 fdbd d8a1 50be 2328 39be c755 1ebe
00000390: 9e8d d6b9 b1c1 9e3a 5e16 d9bc 7370 d73c
000003a0: 3418 06bd bd09 413d 5909 843c ffb5 663c
000003b0: b97a d4bc f9f7 7bbc f6ec 213d 1837 c73c
000003c0: d03e c7bd a369 d0bc 4baf 71bc 3e11 89bd
000003d0: a829 e3bc eda6 6aba a3ac 3cbd aed9 573b
000003e0: 266f 4abe 1719 27be 6c5b 16be 79cc 1dbe
000003f0: 5561 32be 0530 83bd df86 3ebe 15a8 bcbd

fc.1.block.linear.bias f4 [256]
-0.012135816 0.1193576 -0.01671512 0.2388886 0.17635289 -0.03660944 0.2929742 0.18628827
-0.012649151 0.00060486724 0.13414292 0.038798247 0.21716848 -0.23022738 -0.017170982 -0.15327826
0.19276083 0.05717252 0.030591829 0.21013442 0.3089206 0.02477685 -0.049648784 -0.11823527
0.02699089 -0.13343759 0.08387467 0.29186842 0.18051633 -0.021345537 0.037858047 0.025560746
-0.037862163 0.23092052 -0.07142039 -0.0059365532 -0.01981704 -0.2108324 -0.14925623 0.16994351
0.20289959 0.16733545 0.21407658 0.3366648 0.0018867345 0.2620268 0.17150636 -0.066423886
0.15112095 0.16070849 0.017748723 0.10083041 -0.06755862 -0.0041259485 0.17728703 0.15798682
0.02738536 0.3100997 0.23226576 0.1607361 0.18811062 0.071600296 0.006421621 0.319626
0.37209472 0.2783113 -0.0090975305 0.35427445 0.24064806 0.174056 -0.06879288 0.16739658
0.07059255 0.17137745 -0.14619267 0.18794651 0.09273008 0.101082355 0.54101896 -0.034775216
0.17744349 0.17560664 0.10955201 -0.22604106 -0.03588729 -0.18980823 0.32587186 0.0013874404
-0.00047524372 -0.0039006067 -0.13089454 0.099493705 -0.12996046 -0.0041830284 -0.34047294 -0.008709852
-0.035145674 0.36333877 0.17530356 -0.117095836 0.025037605 0.10816808 0.037883133 0.1515207
0.009351905 0.10252654 -0.059417732 -0.16593064 0.16281188 -0.08767245 0.21787864 0.052142017
0.022414876 -0.0047231284 -0.038528766 -0.014898146 0.19081996 -0.06158309 0.027262008 -0.0041881553
0.1096419 0.24448813 -0.021179756 0.33672196 0.38771296 0.22901267 0.23157707 0.3048322
0.07081381 0.1317155 0.0062194597 0.1036265 0.30852228 0.3540065 0.2760218 0.15871872
0.26708752 0.3716398 0.25917736 0.35307798 0.30688754 0.14746284 0.23108165 0.028330045
0.18984564 -0.029206535 0.32310358 0.043479204 0.009084668 0.43743917 0.24417244 0.08657185
0.23170592 0.20209572 -0.021239802 -0.038183983 0.20137937 -0.14899345 0.22559464 0.010115385
-0.11532321 0.2049382 0.093067065 0.18164067 -0.08857297 -0.034782313 0.024084924 0.23533262
0.19179973 0.33371997 -0.28917897 0.21805604 0.015993768 0.18837585 -0.042054925 0.080846414
-0.07016394 0.10704293 0.013301072 0.00042377808 0.120260574 0.49598384 0.20850341 -0.024590617
-0.015191091 0.31628135 0.28352892 0.24660528 0.39599058 0.19650799 0.04200303 -0.11038348
-0.21524891 0.24090917 0.3512392 -0.18323076 -0.002927338 -0.00786895 0.25482887 0.21251804
0.036386304 0.00085077516 0.26253784 0.3597649 -0.09589418 -0.31726757 0.32833776 -0.19389182
-0.017952526 -0.20978655 0.20858292 0.16824451 0.22489423 -0.13219777 -0.078649305 0.22609672
0.23378654 -0.0135429725 -0.23483516 0.10639595 0.043051574 -0.031279285 -0.12020468 -0.05824399
0.21670114 -0.015182105 0.059884295 -0.04928999 -0.45329246 0.008811231 0.26702082 0.49696326
0.046807 0.26016295 -0.2723191 -0.029800119 -0.03259333 0.08998864 0.0134775555 -0.0271964
-0.03391193 -0.04530085 0.122285545 -0.033012945 0.019125262 0.09625604 0.1561316 -0.13967605
0.03356763 0.19052488 0.25659263 -0.026314119 0.06730571 0.2025608 0.14899714 0.20126411
00000000: 4dd5 46bc c271 f43d 26ee 88bc 379f 743e
00000010: da95 343e c8f3 15bd b700 963e 5ac2 3e3e
00000020: 623e 4fbc f48f 1e3a c35c 093e e9ea 1e3d
00000030: 6a61 5e3e bac0 6bbe 29aa 8cbc faf4 1cbe
00000040: 1863 453e bb2d 6a3d b79b fa3c 7a2d 573e
00000050: d72a 9e3e d2f8 ca3c 865c 4bbd 5525 f2bd
00000060: 001c dd3c dda3 08be 7cc6 ab3d c76f 953e
00000070: 46d9 383e d6dc aebc 0a11 1b3d c564 d13c
00000080: 5b15 1bbd 6e76 6c3e da44 92bd 6b87 c2bb
00000090: 5857 a2bc 73e4 57be a0d6 18be ac05 2e3e
000000a0: e9c4 4f3e fc59 2b3e e436 5b3e 545f ac3e
000000b0: 4e4c f73a 6028 863e 5d9f 2f3e 3f09 88bd
000000c0: 73bf 1a3e c490 243e c565 913c 2d80 ce3d
000000d0: 2c5c 8abd f732 87bb bb8a 353e 4cc7 213e
000000e0: 4357 e03c 63c5 9e3e 13d7 6d3e 0198 243e
000000f0: 12a0 403e 2da3 923d 766c d23b 05a6 a33e
00000100: 3383 be3e d27e 8e3e cf0d 15bc 7663 b53e
00000110: 726c 763e bc3b 323e 48e3 8cbd 026a 2b3e
00000120: d492 903d 927d 2f3e 88b3 15be 0d75 403e
00000130: 45e9 bd3d 4404 cf3d 3880 0a3f 7570 0ebd
00000140: bfb3 353e 3ad2 333e ce5c e03d 4f77 67be
00000150: 8dfe 12bd 175d 42be add8 a63e c6da b53a
00000160: 222a f9b9 52a1 7fbb 3809 06be 5bc3 cb3d
00000170: 5b14 05be c911 89bb 7852 aebe c4b3 0ebc
00000180: e9f4 0fbd 8a07 ba3e c782 333e f1cf efbd
00000190: aa1b cd3c 3a87 dd3d 582b 1b3d 3e28 1b3e
000001a0: bc38 193c 6ff9 d13d 0260 73bd b9e9 29be
000001b0: 28b8 263e 9d8d b3bd 941b 5f3e de92 553d
000001c0: 679f b73c 79c4 9abb 57d0 1dbd 5a17 74bc
000001d0: 4f66 433e 8d3e 7cbd 9354 df3c cb3c 89bb
000001e0: ef8b e03d 195b 7a3e 2b81 adbc d266 ac3e
000001f0: 5082 c63e 4c82 6a3e 8a22 6d3e f712 9c3e
00000200: d506 913d 6ee0 063e 9ccc cb3b 213a d43d
00000210: a2f6 9d3e 5740 b53e bb52 8d3e 2987 223e
00000220: b2bf 883e 9247 be3e e5b2 843e a3c6 b43e
00000230: 5d20 9d3e 8000 173e aba0 6c3e 6914 e83c
00000240: e566 423e 8b42 efbc d56d a53e 4017 323d
00000250: dcd7 143c 07f8 df3e 5708 7a3e 954c b13d
00000260: 5144 6d3e 2ef2 4e3e 18ff adbc cf66 1cbd
00000270: 6536 4e3e bd91 18be 4802 673e 00bb 253c
00000280: 932e ecbd 52db 513e f299 be3d 0300 3a3e
00000290: bf65 b5bd e677 0ebd bf4d c53c 09fb 703e
000002a0: 2667 443e 58dd aa3e 440f 94be 154a 5f3e
000002b0: 5d05 833c 99e5 403e c941 2cbd ce92 a53d
000002c0: 1db2 8fbd 5339 db3d bdec 593c 882e de39
000002d0: 2d4b f63d 98f1 fd3e eb81 553e 4372 c9bc
000002e0: 0ee4 78bc a1ef a13e b42a 913e 1886 7c3e
000002f0: 47bf ca3e 6439 493e 5f0b 2c3d bc10 e2bd
00000300: 366a 5cbe e5b0 763e a0d5 b33e d8a0 3bbe
00000310: 95d8 3fbb c5ec 00bc ee78 823e 549e 593e
00000320: ce09 153d 8e06 5f3a 5c6b 863e 1b33 b83e
00000330: 2b64 c4bd e570 a2be e31b a83e 948b 46be
00000340: 2d11 93bc 49d2 56be c396 553e 4a48 2c3e
00000350: ac4a 663e da5e 07be e312 a1bd e685 673e
00000360: bd65 6f3e 58e3 5dbc a178 70be 1fe6 d93d
00000370: d956 303d b51e 00bd df2d f6bd 4091 6ebd
00000380: e7e6 5d3e 5dbe 78bc 3c49 753d 4de4 49bd
00000390: f315 e8be fb5c 103c f4b6 883e f871 fe3e
000003a0: b2b8 3f3d 1434 853e 696d 8bbe 611f f4bc
000003b0: 9580 05bd f74b b83d f7d0 5c3c fcca debc
000003c0: 3ce7 0abd 628d 39bd d870 fa3d 9538 07bd
000003d0: 95ac 9c3c e321 c53d f6e0 1f3e 3d07 0fbe
000003e0: 367e 093d f418 433e 1c60 833e b590 d7bc
000003f0: 93d7 893d 196c 4f3e b592 183e 2e18 4e3e

fc.2.block.linear.weight f4 [64, 256]
-0.0031390989 -0.103045896 -0.03568975 0.1065359 0.002589102 0.035532862 0.07916232 -0.05338258
-0.007286166 -0.046294387 -0.13486914 0.047400385 0.027764626 -0.007946441 -0.014258325 0.01921772
-0.030100157 0.07509475 0.033885326 0.099285334 0.0094328495 -0.16080008 0.02537113 0.047965184
-0.033417948 0.005710444 -0.015101629 -0.18141863 -0.03561891 -0.042400885 -0.107737094 0.008710287
0.19688772 0.035922483 0.07132133 -0.05307782 -0.012808194 0.07905 0.16222852 0.0069883824
-0.07270659 0.030618617 -0.047252778 0.043777622 0.0050672726 0.025488788 -0.0050825668 -0.049880292
0.031935472 -0.022603657 0.021350997 -0.0005095082 -0.11320892 -0.26684135 -0.08098226 0.016970245
-0.0224599 0.16999291 -0.006424593 -0.110910065 0.036683984 0.009460986 -0.018742958 0.13778993
-0.11586316 0.0035101098 -0.0054751625 0.036133356 0.0764958 0.12952378 0.0728427 0.049314886
0.07408287 0.08779961 0.081731886 0.15248321 -0.028317334 0.004470811 -0.22084768 0.027814677
0.012761692 0.00035156833 -0.24892056 0.0758828 0.0143520115 0.08448109 -0.09964731 -0.006362286
-0.005125329 -0.058327522 0.07331283 -0.06557622 0.0202311 -0.012988936 0.036587846 0.009694854
-0.045596138 -0.09077429 -0.28252205 0.09063734 -0.0020755283 -0.08700081 -0.23717204 0.05956686
0.036434054 0.04175348 0.02117235 0.057559747 -0.07981764 0.046315644 0.08281528 -0.12649103
-0.0038904545 -0.01948747 0.06124926 -0.04961036 -0.22949812 0.05440058 -0.04082972 0.023771355
0.00043704448 0.11950413 0.029590314 -0.117341205 0.10287668 -0.06074982 -0.10348803 0.04517533
0.017508674 0.122038335 0.0128406 0.00686797 -0.29892084 0.07216147 0.10727847 0.07695261
0.0012365655 0.0148293 -0.072744414 -0.008697105 -0.12420255 -0.10324057 0.07105834 -0.05766358
-0.0058522183 -0.037113007 0.11901624 -0.04543237 -0.05041343 0.05785607 0.07859884 -0.004417769
0.07192284 -0.043128483 0.03549781 -0.03234519 -0.028571587 -0.020113671 0.19609438 0.0045002876
-0.00060423766 -0.0723461 0.006529573 -0.06745257 0.036807686 0.07382317 0.08746794 0.004059826
0.09205991 -0.051528584 0.046578374 -0.11756189 0.014984528 0.17687754 0.019950867 0.023441723
0.0016640462 0.026662577 -0.078759946 0.03856026 0.04801639 -0.15021078 0.06976114 0.004356161
0.047287673 0.01765605 -0.085668914 -0.08006543 0.046220254 -0.09697156 -0.07590941 -0.083396405
0.008254127 -0.04217767 -0.069747366 -0.062122624 0.13261402 -0.026739698 -0.067131355 0.20870301
-0.0148931295 -0.050964125 0.18944182 -0.23950425 0.14589046 0.033708815 -0.15738338 0.060639754
0.015307546 0.068638764 0.26980066 0.05286142 0.012591741 -0.0155313555 0.0039635627 0.021447316
0.06803464 0.053994253 0.014686007 0.07075256 -0.03458626 -0.033727277 -0.021825986 0.014008788
-0.00039437122 -0.021773206 0.036820512 -0.0518762 0.041439794 0.029848307 -0.11567182 -0.0160049
-0.020979669 0.049696226 0.0007783241 0.019870527 -0.028120195 -0.031653665 -0.026594983 0.0011437184
0.0039731227 -0.003486267 0.029435193 -0.0633612 0.027205877 -0.01354946 -0.20256093 -0.16095077
0.06815615 0.08278052 0.012785767 0.06284318 -0.017392334 0.13633329 0.044823214 -0.0454177
00000000: 57b9 4dbb ba09 d3bd 6a2f 12bd 7e2f da3d
00000010: ecad 293b e88a 113d db1f a23d b1a7 5abd
00000020: cac0 eebb 2f9f 3dbd 231b 0abe e826 423d
00000030: a472 e33c ca31 02bc c09b 69bc 7b6e 9d3c
00000040: 9b94 f6bc 47cb 993d 57cb 0a3d 1c56 cb3d
00000050: 3d8c 1a3c c7a8 24be 1ed7 cf3c 2477 443d
00000060: 42e1 08bd ad1e bb3b d36c 77bc cec5 39be
00000070: 22e5 11bd 8dac 2dbd 44a5 dcbd 97b5 0e3c
00000080: ef9c 493e 7423 133d eb10 923d 2168 59bd
00000090: 76d9 51bc f7e4 a13d 3c1f 263e cdfe e43b
000000a0: 31e7 94bd e5d3 fa3c 218c 41bd 2a50 333d
000000b0: 5d0b a63b ddcd d03c a98b a6bb 474f 4cbd
000000c0: c5ce 023d 4e2b b9bc 49e8 ae3c 8490 05ba
000000d0: 14da e7bd 6e9f 88be 07da a5bd 2f05 8b3c
000000e0: d3fd b7bc 9f12 2e3e 6485 d2bb d124 e3bd
000000f0: f241 163d 4002 1b3c d58a 99bc ce18 0d3e
00000100: aa49 edbd df09 663b fe68 b3bb 9200 143d
00000110: d4a9 9c3d e2a1 043e 8e2e 953d 68fe 493d
00000120: c2b8 973d 48d0 b33d 0c63 a73d 8f24 1c3e
00000130: c1f9 e7bc e27f 923b e525 62be 9bdb e33c
00000140: 6a16 513c b452 b839 08e5 7ebe 7168 9b3d
00000150: b324 6b3c 6c04 ad3d e413 ccbd b97a d0bb
00000160: 60f2 a7bb d7e8 6ebd 0925 963d d34c 86bd
00000170: b1bb a53c 8ccf 54bc 23dd 153d 2ad7 1e3c
00000180: 04c3 3abd dfe7 b9bd bba6 90be 12a0 b93d
00000190: 9605 08bb 7b2d b2bd 3add 72be 61fc 733d
000001a0: e03b 153d b205 2b3d a371 ad3c c5c3 6b3d
000001b0: 6e77 a3bd 79b5 3d3d 0f9b a93d dd86 01be
000001c0: fff6 7ebb 30a4 9fbc 81e0 7a3d 3c34 4bbd
000001d0: 8e01 6bbe 24d3 5e3d 113d 27bd 25bc c23c
000001e0: 1e23 e539 95be f43d 6367 f23c 9650 f0bd
000001f0: 02b1 d23d ced4 78bd 88f1 d3bd c409 393d
00000200: 5a6e 8f3c 3cef f93d 6161 523c b50c e13b
00000210: 270c 99be 65c9 933d d1b4 db3d 5499 9d3d
00000220: 4114 a23a 98f6 723c 06fb 94bd 4d7e 0ebc
00000230: e85d febd cb6f d3bd 0987 913d a530 6cbd
00000240: f7c3 bfbb cf03 18bd c9be f33d 4b17 3abd
00000250: 507e 4ebd 7dfa 6c3d 6ef8 a03d efc2 90bb
00000260: 484c 933d 7ea7 30bd 2766 113d 647c 04bd
00000270: f60e eabc 6dc5 a4bc f7cc 483e 2677 933b
00000280: b465 1eba 312a 94bd 07f6 d53b 9324 8abd
00000290: a8c3 163d 9a30 973d 6422 b33d 4a08 853b
000002a0: e889 bc3d a30f 53bd f7c8 3e3d 4ac4 f0bd
000002b0: aa81 753c 631f 353e 0070 a33c db08 c03c
000002c0: 201c da3a 7a6b da3c e54c a1bd 5df1 1d3d
000002d0: d6ac 443d dbd0 19be eede 8e3d 21be 8e3b
000002e0: b8b0 413d 6ca3 903c 2f73 afbd 58f9 a3bd
000002f0: 7351 3d3d 0699 c6bd 6576 9bbd bccb aabd
00000300: 513c 073c 7ec2 2cbd b5d7 8ebd 4b74 7ebd
00000310: f8cb 073e 360d dbbc 2a7c 89bd 3eb6 553e
00000320: 5002 74bc c2bf 50bd 09fd 413e 9a40 75be
00000330: 4f64 153e 4112 0a3d 1c29 21be 6461 783d
00000340: 80cc 7a3c 7b92 8c3d 5023 8a3e 3785 583d
00000350: 974d 4e3c 3a77 7ebc c6e0 813b 48b2 af3c
00000360: bf55 8b3d 1429 5d3d 949d 703c b8e6 903d
00000370: 52aa 0dbd 9d25 0abd 69cc b2bc 1e85 653c
00000380: 9cc3 ceb9 b95d b2bc 1bd1 163d 237c 54bd
00000390: c6bc 293d 7084 f43c 59e5 ecbd b51c 83bc
000003a0: 8edd abbc 458e 4b3d 7208 4c3a 84c7 a23c
000003b0: 535c e6bc 46a7 01bd b9dd d9bc d2e8 953a
000003c0: f830 823b db79 64bb 1322 f13c 84c3 81bd
000003d0: dcde de3c 8efe 5dbc 226c 4fbe 47d0 24be
000003e0: 7495 8b3d d588 a93d 657b 513c edb3 803d
000003f0: 5e7a 8ebc f49a 0b3e 8c98 373d e907 3abd

fc.2.block.linear.bias f4 [64]
-0.039933722 0.12510064 0.07945592 0.108115956 0.26384196 0.22243859 -0.0672368 -0.023961812
0.2240388 0.009431781 0.09426086 0.2580216 0.26913103 0.017573118 0.107268885 0.10352736
0.13827212 0.29297838 -0.069356196 -0.037975654 -0.12328003 0.085686766 0.22592959 0.055155393
0.19611946 0.18642895 0.27361745 0.121777 0.3276127 0.17979062 -0.11706831 0.14624606
0.19533217 0.08876418 0.19951361 0.24688284 0.25097644 0.20233992 0.25583938 0.14118879
0.26688537 0.0012670989 0.017828839 0.14302915 -0.03038059 0.114034995 0.36280555 0.1735769
0.31499445 0.022604352 0.29030845 0.09523205 -0.07448349 0.11044486 0.26896143 0.28663465
0.0944223 0.014433367 0.18025014 0.22795059 0.19876008 0.19815212 0.05779366 0.054660432
00000000: 8b91 23bd 621a 003e c9b9 a23d e66b dd3d
00000010: 4b16 873e f1c6 633e 73b3 89bd 904b c4bc
00000020: 6d6a 653e c287 1a3c d60b c13d 681b 843e
00000030: 8bcb 893e 80f5 8f3c caaf db3d 2706 d43d
00000040: 3597 0d3e 4301 963e 9f0a 8ebd 5c8c 1bbd
00000050: 3e7a fcbd 8b7c af3d 165a 673e 9fea 613d
00000060: 8ad3 483e 3be7 3e3e 9617 8c3e 3866 f93d
00000070: dabc a73e 081b 383e 83c1 efbd 87c1 153e
00000080: 2805 483e ffc9 b53d 4c4d 4c3e dbce 7c3e
00000090: fc7f 803e 3232 4f3e 61fd 823e cb93 103e
000000a0: 33a5 883e c914 a63a c90d 923c 3c76 123e
000000b0: b7e0 f8bc 2e8b e93d a6c1 b93e 25be 313e
000000c0: f446 a13e c32c b93c 4fa3 943e 0509 c33d
000000d0: cd8a 98bd ea30 e23d 50b5 893e c7c1 923e
000000e0: 7b60 c13d ee79 6c3c 7e93 383e e16b 693e
000000f0: c387 4b3e 64e8 4a3e 0bb9 6c3d 9ee3 5f3d

fc.3.block.linear.weight f4 [10, 64]
0.21472158 -0.5689612 -0.3631149 -0.11197996 -0.13558425 -0.087292254 0.04097444 0.14611956
-0.112304896 -0.27520186 0.08348783 0.09672804 -0.32862365 -0.29687187 0.149167 0.19297609
0.18079211 -0.10280399 0.152618 -0.032565 0.18383513 -0.07958878 -0.13929012 -0.4267975
-0.0075830393 0.12094427 0.15813486 -0.2973241 -0.011330307 -0.3415792 0.20798609 -0.28219798
-0.28868154 -0.48045677 -0.26183945 -0.39273384 -0.49836737 -0.18062 0.11892998 0.022834774
-0.16751432 -0.33387688 -0.44491744 0.13886447 -0.066786304 -0.39495733 -0.39440116 -0.31271207
-0.15319747 0.10019157 0.091801055 0.07429421 -0.2084154 -0.42255834 -0.3015807 -0.50207144
-0.44653404 0.089718215 -0.22132628 -0.17407094 -0.20307843 0.14262004 -0.07522826 0.12693638
-0.27706733 -0.03750312 0.20841327 0.21218406 0.15663105 -0.21412012 0.22820696 0.05288775
0.07778837 0.067713566 0.057488345 -0.106206134 0.075126775 0.22440103 0.06084415 0.076058775
0.08164017 0.14145151 -0.23735082 -0.069691315 0.070128754 -0.34775087 -0.20993406 0.012899472
-0.28620228 -0.32871747 0.08539614 -0.17463653 -0.23405345 -0.3515024 -0.2997598 -0.08529116
0.02924399 -0.28570056 -0.10367604 -0.27699006 0.07455629 -0.23507011 -0.0439983 0.061757654
0.16852434 -0.3536149 -0.2837331 -0.33294374 0.24731515 0.14454362 -0.07226165 -0.05838433
-0.2308946 -0.17594968 0.05131745 -0.35842758 0.16861019 0.09132041 -0.23339368 -0.3096589
-0.2167685 -0.05065798 -0.32211316 0.089034446 0.09750789 0.07695405 0.26995778 0.0799363
0.10107383 -0.42395884 0.045032945 0.048976034 -0.18272266 -0.1123592 0.104950204 0.0012939
-0.28383228 0.108268425 0.048223294 -0.6757802 -0.07747365 -0.035942394 -0.043978788 0.08391321
0.01614354 -0.32729498 -0.18239754 -0.151678 0.10551558 0.057796456 -0.103544235 0.10186136
-0.0868992 -0.038426418 -0.4084238 0.08789224 -0.24272665 0.11232824 0.13784683 0.10155321
0.075507335 0.115353554 -0.22751966 -0.020605069 0.11506293 -0.31163767 -0.33271784 0.009064225
-0.14418384 0.11451219 0.017866427 0.12857042 0.10630566 0.051794443 -0.1901536 -0.08541214
-0.27271467 0.0043276367 -0.113182046 -0.0068500084 0.12476519 0.09093109 -0.014058346 0.11197442
0.071360886 0.064235196 0.09077095 0.06201964 -0.31395513 -0.22967419 0.10556557 0.097230606
0.09329532 -0.270075 -0.2288657 0.064278886 -0.2297956 -0.2895053 -0.11556374 0.13863143
-0.2983532 -0.10692766 0.020133594 -0.6006818 0.07805868 -0.34755135 0.013934351 -0.3316451
0.050779015 0.086831264 -0.31391588 0.017200382 -0.22797498 -0.02676235 0.037019383 -0.16982011
0.094231226 0.12871186 0.14042543 0.098062634 0.0816102 -0.15584369 -0.2791651 0.09808517
-0.0061040334 0.08285591 0.111247584 0.14883688 0.10246532 0.14953777 0.053697314 0.1537048
-0.22042885 -0.13350163 -0.2794416 -0.19762705 0.07173731 0.072014056 -0.17729783 -0.07559546
-0.2149625 -0.008743804 -0.18097347 -0.00018443223 0.100751765 0.0503506 0.13789034 0.10219856
0.044416565 -0.18477839 0.092108354 0.07092758 0.18749848 -0.2934624 -0.24849197 -0.36746502
00000000: f9df 5b3e 71a7 11bf 32ea b9be c055 e5bd
00000010: 99d6 0abe 48c6 b2bd d0d4 273d 5ea0 153e
00000020: 1c00 e6bd 42e7 8cbe abfb aa3d 5a19 c63d
00000030: 5c41 a8be 97ff 97be 3cbf 183e 869b 453e
00000040: 9121 393e e68a d2bd e547 1c3e e162 05bd
00000050: 473f 3c3e 71ff a2bd 12a2 0ebe 3485 dabe
00000060: 257b f8bb a1b1 f73d 1bee 213e dd3a 98be
00000070: c1a2 39bc 78e3 aebe 4efa 543e 417c 90be
00000080: 11ce 93be 6efe f5be d20f 86be 6914 c9be
00000090: 022a ffbe 73f4 38be 9091 f33d fe0f bb3c
000000a0: e088 2bbe e9f1 aabe 38cc e3be 7d32 0e3e
000000b0: 42c7 88bd d937 cabe f3ee c9be cc1b a0be
000000c0: ccdf 1cbe 3d31 cd3d 3102 bc3d 9027 983d
000000d0: d96a 55be 9159 d8be c968 9abe c187 00bf
000000e0: 1ca0 e4be 2fbe b73d 5ba3 62be a73f 32be
000000f0: cbf3 4fbe fd0a 123e 4611 9abd 9cfb 013e
00000100: c5db 8dbe df9c 19bd 4a6a 553e c746 593e
00000110: e463 203e 4e42 5bbe 16af 693e d3a0 583d
00000120: 824f 9f3d 69ad 8a3d e678 6b3d 9a82 d9bd
00000130: 11dc 993d 62c9 653e b737 793d b4c4 9b3d
00000140: f632 a73d aad8 103e 180c 73be 52ba 8ebd
00000150: aa9f 8f3d 670c b2be f4f8 56be 4f58 533c
00000160: 1b89 92be a84d a8be 2ce4 ae3d ebd3 32be
00000170: b5ab 6fbe 1ff8 b3be 1e7a 99be 22ad aebd
00000180: 1891 ef3c 5847 92be 1b54 d4bd a4d1 8dbe
00000190: f8b0 983d 38b6 70be 9037 34bd 98f5 7c3d
000001a0: a591 2c3e 030d b5be 7745 91be 9a77 aabe
000001b0: 2f40 7d3e 3e03 143e eafd 93bd 6824 6fbd
000001c0: a26f 6cbe 272c 34be 3f32 523d d283 b7be
000001d0: 26a8 2c3e 3206 bb3d c1fe 6ebe 9d8b 9ebe
000001e0: 90f8 5dbe be7e 4fbd 04ec a4be b157 b63d
000001f0: 37b2 c73d 169a 9d3d e837 8a3e a5b5 a33d
00000200: ccff ce3d 2211 d9be 7774 383d 189b 483d
00000210: a61b 3bbe 951c e6bd 22f0 d63d 1498 a93a
00000220: 7752 91be d6bb dd3d ca85 453d eeff 2cbf
00000230: 81aa 9ebd 5538 13bd 1a23 34bd b0da ab3d
00000240: 753f 843c 3593 a7be 6cc6 3abe 7a51 1bbe
00000250: 8d18 d83d fabb 6c3d 000f d4bd b09c d03d
00000260: 35f8 b1bd 0565 1dbd ed1c d1be d900 b43d
00000270: 568d 78be 590c e63d b827 0d3e 21fb cf3d
00000280: 97a3 9a3d 7c3e ec3d eafa 68be f6cb a8bc
00000290: 1da6 eb3d f98e 9fbe fe59 aabe 1d82 143c
000002a0: eea4 13be 5e85 ea3d 9d5c 923c f7a7 033e
000002b0: c8b6 d93d 6926 543d a0b7 42be 8fec aebd
000002c0: 42a1 8bbe d9ce 8d3b fdcb e7bd 0976 e0bb
000002d0: e484 ff3d 143a ba3d fa54 66bc d852 e53d
000002e0: a825 923d be8d 833d 1fe6 b93d 4e08 7e3d
000002f0: babe a0be b62f 6bbe c332 d83d d720 c73d
00000300: 9e11 bf3d 4547 8abe c55b 6abe a6a4 833d
00000310: 8a4f 6bbe 0a3a 94be afac ecbd 66f5 0d3e
00000320: c0c1 98be e4fc dabd 35ef a43c 48c6 19bf
00000330: 3bdd 9f3d 40f2 b1be e74c 643c 63cd a9be
00000340: a8fd 4f3d 97d4 b13d 95b9 a0be d1e7 8c3c
00000350: 4672 69be b73c dbbc a3a1 173d 53e5 2dbe
00000360: 4dfc c03d 0bcd 033e afcb 0f3e 10d5 c83d
00000370: 4023 a73d 7d95 1fbe baee 8ebe e1e0 c83d
00000380: 5804 c8bb 5cb0 a93d c6d5 e33d b268 183e
00000390: 56d9 d13d 6e20 193e b7f1 5b3d cb64 1d3e
000003a0: 1ab8 61be a7b4 08be f812 8fbe bf5e 4abe
000003b0: 03eb 923d 1b7c 933d 908d 35be cbd1 9abd
000003c0: 211f 5cbe 2c42 0fbc 1c51 39be 2664 41b9
000003d0: f156 ce3d 6e3c 4e3d 2033 0d3e 7b4d d13d
000003e0: 25ee 353d 8c36 3dbe 4ea3 bc3d 7b42 913d
000003f0: 9aff 3f3e b440 96be ae74 7ebe 6024 bcbe

fc.3.block.linear.bias f4 [10]
-0.16841315 -0.07512385 -0.24536712 0.19366096 0.025472619 0.1489658 -0.009206267 0.11370399
0.011954143 -0.12861742
00000000: 7f74 2cbe 88da 99bd 8541 7bbe 0f4f 463e
00000010: f4ab d03c 7e8a 183e e2d5 16bc a3dd e83d
00000020: 4fdb 433c 49b4 03be
